sentiment_model.pth (torch, 252704 bytes, 8 tensors)

fc1.weight f4 [200, 100]
0.17983642 -0.05767963 0.07604748 -0.042740494 -0.061480515 -0.23209913 0.059815414 0.0011774753
0.11843585 -0.14173123 0.02617839 -0.05305053 0.08429912 -0.0133906985 0.07773035 0.029237559
-0.19723812 -0.052514657 0.20698349 0.04144244 0.13864382 0.09572808 0.08755787 0.097307034
0.078601085 -0.04495501 -0.048450135 -0.1941209 0.09839529 -0.11149462 -0.12282925 0.16864051
0.000907938 0.027139729 0.029152125 -0.082720295 0.033047494 -0.075190745 0.058275346 -0.027615493
0.008305182 0.12056799 0.10842674 -0.3861891 0.07180576 -0.14082463 -0.051346518 -0.11564328
0.02602107 0.031064188 0.10985316 -0.020340078 0.05275503 0.0042238156 -0.06383198 -0.044611257
0.426185 -0.02348625 0.02247185 -0.0053947107 -0.14843571 -0.047146406 -0.036437098 -0.17193492
0.070523776 -0.15306997 0.11178724 -0.083614 0.03854457 0.07154393 -0.06477098 -0.035797425
-0.07793925 -0.1278031 0.087938845 -0.20921865 0.08914014 -0.07779483 0.06663094 0.21413192
0.011458422 0.12100631 0.0050249617 -0.006336429 0.0132927215 0.031741496 0.07061665 0.08914065
0.04109685 -0.076121554 0.09016351 0.1528183 -0.1505588 0.027804514 0.10484343 -0.018303705
-0.07017356 -0.023504797 0.0083404 0.12948312 0.06579189 -0.18231258 -0.11539695 0.23008806
0.0066564376 -0.0022656799 0.020676563 0.2022301 -0.1388357 0.06427361 0.01287031 0.0016074204
0.014909811 0.112926476 -0.08294458 -0.015323385 0.22846112 -0.12763098 0.20261376 -0.04736495
-0.15584213 -0.07161673 0.0060135834 -0.19956507 -0.11015937 -0.2640633 -0.22934063 -0.023245903
0.20290352 0.13330556 0.035870727 0.0639837 -0.19084096 -0.16885631 -0.22504267 -0.07193083
-0.01261355 -0.15342967 0.056911673 0.12813479 -0.11029333 -0.006501284 -0.13345362 0.19942024
-0.17987084 -0.07962779 0.008989474 -0.038534258 0.1167171 0.34545773 -0.025607444 0.034254454
0.029620003 0.009031341 -0.04098915 -0.031687252 0.04173395 0.20338453 -0.035470344 0.03598637
0.05076018 -0.068366274 -0.033943493 -0.2248245 -0.18554957 0.06663977 0.032275062 0.010029481
0.013336364 -0.028594425 -0.00040075873 0.018738275 -0.05804717 0.07424587 0.101718314 -0.0022115798
0.028162766 0.10250595 0.13325708 -0.25491208 -0.017045416 0.038588777 -0.03793956 -0.04358669
-0.062379837 0.042318806 0.019320687 0.11608628 0.120108575 0.014783026 -0.0747227 -0.2022591
0.17827222 -0.25402105 0.047660403 0.15940197 -0.08601333 0.043421607 -0.07146347 0.13101092
0.0849089 0.078484125 0.20515254 0.16733284 -0.034241974 -0.048810948 -0.042444214 -0.07944302
0.031129643 -0.14172173 0.30041096 -0.07613614 -0.13507213 -0.24116252 0.012370893 -0.15258865
0.102365196 -0.22297642 0.10349528 -0.027940467 0.089155495 -0.07724308 -0.11037409 -0.11239654
-0.08911752 0.04654878 0.15054357 0.21894039 0.16104898 0.24170522 -0.06500446 -0.4766526
0.1455121 0.030915162 0.08148446 -0.14999928 -0.05387916 0.21827926 0.20084165 -0.049718276
-0.24567993 0.25126258 0.10037559 0.043446958 0.09895082 -0.119307585 0.0012748529 -0.062384788
0.07071256 -0.08632591 -0.073092006 0.36804435 0.14548126 -0.07482097 -0.01651362 0.1335954
00000000: 0a27 383e 7a41 6cbd c8be 9b3d a810 2fbd
00000010: fed2 7bbd 65ab 6dbe 0201 753d 8455 9a3a
00000020: 7f8e f23d fe21 11be 1074 d63c 834b 59bd
00000030: 04a5 ac3d a964 5bbc 1731 9f3d 9b83 ef3c
00000040: caf8 49be 9c19 57bd 7bf3 533e 8cbf 293d
00000050: a5f8 0d3e 150d c43d 8a51 b33d e948 c73d
00000060: 9bf9 a03d bf22 38bd a673 46bd a1c7 46be
00000070: 7883 c93d 4b57 e4bd e78d fbbd 19b0 2c3e
00000080: b002 6e3a 2354 de3c 70d0 ee3c 4269 a9bd
00000090: cf5c 073d 9bfd 99bd 21b2 6e3d e339 e2bc
000000a0: 7512 083c 5aec f63d d70e de3d 94ba c5be
000000b0: e60e 933d 5534 10be ba50 52bd 62d6 ecbd
000000c0: 242a d53c 537a fe3c b2fa e03d 3ca0 a6bc
000000d0: a915 583d ef67 8a3b 57ba 82bd 4bba 36bd
000000e0: ec34 da3e 3c66 c0bc e316 b83c 1dc6 b0bb
000000f0: 88ff 17be 971c 41bd 113f 15bd b50f 30be
00000100: c56e 903d 60be 1cbe b5f0 e43d d13d abbd
00000110: e9e0 1d3d a085 923d a6a6 84bd 52a0 12bd
00000120: 9d9e 9fbd d1de 02be 4819 b43d 6a3d 56be
00000130: 1b8f b63d e552 9fbd cd75 883d 6645 5b3e
00000140: 1bbc 3b3c 28d2 f73d 6fa8 a43b d2a1 cfbb
00000150: b7c9 593c 5f03 023d 769f 903d 608f b63d
00000160: 2c55 283d 9ee5 9bbd a5a7 b83d 677c 1c3e
00000170: 162c 1abe 4bc6 e33c 27b8 d63d a7f1 95bc
00000180: 28b7 8fbd 228d c0bc 2ca6 083c 3997 043e
00000190: e6bd 863d 26b0 3abe 3c55 ecbd 349c 6b3e
000001a0: 3f1e da3b cd7b 14bb e561 a93c 6815 4f3e
000001b0: f22a 0ebe e2a1 833d fedd 523c 14b0 d23a
000001c0: 4848 743c ff45 e73d d9de a9bd ef0e 7bbc
000001d0: b6f1 693e b2b1 02be fb79 4f3e c001 42bd
000001e0: 1495 1fbe cbab 92bd 980d c53b c95a 4cbe
000001f0: 3c9b e1bd 4e33 87be 45d8 6abe 316e bebc
00000200: f1c5 4f3e 4181 083e 2fed 123d e309 833d
00000210: d06b 43be abe8 2cbe 9671 66be 7950 93bd
00000220: 10a9 4ebc ab1c 1dbe 371c 693d c435 033e
00000230: 78e1 e1bd b908 d5bb 11a8 08be d234 4c3e
00000240: 1030 38be e513 a3bd 9648 133c 19d6 1dbd
00000250: 6009 ef3d d6df b03e b4c6 d1bc 664e 0c3d
00000260: a6a5 f23c 31f8 133c 3de4 27bd 7eca 01bd
00000270: 38f1 2a3d 0944 503e 5a49 11bd 7266 133d
00000280: e8e9 4f3d 9e03 8cbd 5508 0bbd 6538 66be
00000290: b500 3ebe 6f7a 883d db32 043d b152 243c
000002a0: c480 5a3c db3e eabc ed1c d2b9 0381 993c
000002b0: dfc2 6dbd 380e 983d b151 d03d 27f0 10bb
000002c0: 9ab5 e63c a4ee d13d 8b74 083e d683 82be
000002d0: d4a2 8bbc 440f 1e3d 8366 1bbd f587 32bd
000002e0: 0082 7fbd 7c56 2d3d 6b46 9e3c a5be ed3d
000002f0: 7cfb f53d 8134 723c 3708 99bd 021d 4fbe
00000300: fe8c 363e 0c0f 82be 8e37 433d 453a 233e
00000310: c227 b0bd dbda 313d 715b 92bd ba27 063e
00000320: b8e4 ad3d 49bc a03d 8213 523e 4d59 2b3e
00000330: 5041 0cbd fded 47bd fcd9 2dbd 06b3 a2bd
00000340: 9803 ff3c 801f 11be 77cf 993e 44ed 9bbd
00000350: 5950 0abe 4ff3 76be 49af 4a3c 3340 1cbe
00000360: d8a4 d13d ee53 64be 55f5 d33d 68e3 e4bc
00000370: 2897 b63d 9f31 9ebd d00b e2bd 2830 e6bd
00000380: 3f83 b6bd efa9 3e3d 1828 1a3e e931 603e
00000390: 06ea 243e 9381 773e 0f21 85bd cf0b f4be
000003a0: 2001 153e cb41 fd3c 53e1 a63d 6999 19be
000003b0: 65b0 5cbd 9984 5f3e 6fa9 4d3e 64a5 4bbd
000003c0: 8593 7bbe 7da5 803e b891 cd3d 70f5 313d
000003d0: baa6 ca3d 8957 f4bd f718 a73a 3187 7fbd
000003e0: bfd1 903d a4cb b0bd 43b1 95bd 4f70 bc3e
000003f0: 0af9 143e bd3b 99bd 9247 87bc 3ccd 083e

fc1.bias f4 [200]
0.052714393 0.028636033 -0.018626217 0.10600525 0.066398844 -0.010048581 0.013110379 -0.020557998
-0.0048515145 0.039363865 0.11181294 0.15029125 0.026501127 0.0935593 0.00068795367 0.008336967
0.0074191135 0.0015668361 0.082991704 0.06584228 0.07255691 0.10469069 0.10656365 0.012872162
-0.07038606 0.10368514 -0.030547218 0.026373498 -0.035073444 0.12591717 0.14612092 0.09644591
-0.015305615 0.025773758 0.037494168 0.07316099 -0.06984231 0.12178846 0.10622559 -0.0348133
0.0076356833 0.046856467 -0.077303305 -0.05079076 0.08445125 0.04780586 -0.033723928 0.0861125
0.104049966 0.0706783 -0.09315484 -0.009077355 -0.07953901 0.07928483 0.08690192 0.0927258
0.06303143 -0.021956276 -0.28277597 0.00952003 -0.005640565 -0.03522054 -0.016736351 0.0626653
-0.052394606 0.088013425 -0.039003924 -0.06905853 -0.07813047 -0.06406345 0.07174755 0.07198759
-0.023895662 0.068051465 -0.038825817 -0.049107797 0.010250711 0.0050886404 0.012573528 0.010599346
0.12198312 -0.026675787 0.101164505 0.09747708 -0.03540319 0.019353198 0.07043129 -0.04896505
0.05303992 0.05131036 -0.061838716 0.07767737 0.025098909 0.04617882 0.04122506 0.016047748
0.11341978 -0.08942909 0.04405885 -0.0033711314 -0.0053201485 0.08938651 0.09486885 0.03513772
-0.08765906 0.12687798 -0.031599566 0.11309384 0.013679018 0.081138365 0.16804239 -0.017083557
0.0017199272 0.021020511 0.10049804 0.093250655 0.14310941 -0.04405143 0.123981245 0.027000837
0.104395114 0.082734525 0.16525453 0.089354806 0.013629868 -0.070131585 -0.014195538 0.0072752344
-0.004842896 0.018109528 -0.008767812 0.08586771 0.080365784 0.050014116 0.012596069 0.08799943
0.048687223 -0.003632895 -0.052792486 0.014582487 -0.035153393 0.09063509 -0.081160694 0.11519311
0.02840877 -0.052219957 0.12003409 -0.04736199 0.12616204 0.05999382 0.06677718 0.023302477
-0.116103254 -0.036571886 -0.070907034 -0.07746234 0.03838658 0.034593474 0.041574236 0.1578616
0.08613428 -0.05075173 0.065523244 0.04500543 -0.057976685 0.018611614 0.079473495 0.077760905
0.39453602 0.07079257 0.09233762 0.084914654 0.0715176 0.058959804 0.0050852704 -0.0021454834
-0.01024922 0.0802397 0.053734463 -0.06921102 0.09310542 0.036697082 0.0078940885 -0.04465472
-0.105908535 0.03392812 0.09588077 0.12014326 -0.03736893 -0.013916272 -0.029315341 0.1053081
0.03640225 -0.07003244 -0.01726254 -0.101252615 -0.07289126 -0.047210123 0.09325798 0.008158589
00000000: 0ceb 573d 1d96 ea3c 0296 98bc 4819 d93d
00000010: 1efc 873d cea2 24bc eacc 563c 3f69 a8bc
00000020: 74f9 9ebb 013c 213d 2ffe e43d f3e5 193e
00000030: e418 d93c 059c bf3d ca57 343a c697 083c
00000040: 091c f33b 4c5e cd3a 8ef7 a93d 51d8 863d
00000050: b898 943d 1368 d63d 0b3e da3d c3e5 523c
00000060: 9126 90bd e058 d43d 293e fabc 3c0d d83c
00000070: 2ca9 0fbd 6ef0 003e b9a0 153e 6f85 c53d
00000080: 67c4 7abc 7d23 d33c 7c93 193d 6ed5 953d
00000090: 7c09 8fbd 3a6c f93d cd8c d93d 6498 0ebd
000000a0: c134 fa3b 91ec 3f3d 3251 9ebd f909 50bd
000000b0: c7f4 ac3d 14d0 433d 1a22 0abd c05b b03d
000000c0: 2618 d53d c9bf 903d f7c7 bebd 30b9 14bc
000000d0: 59e5 a2bd 1660 a23d a2f9 b13d 06e7 bd3d
000000e0: 9f16 813d a6dd b3bc 03c8 90be e6f9 1b3c
000000f0: 7dd4 b8bb 6a43 10bd ac1a 89bc aa56 803d
00000100: ba9b 56bd 6240 b43d 94c2 1fbd 8f6e 8dbd
00000110: de02 a0bd b333 83bd 61f0 923d 3b6e 933d
00000120: d6c0 c3bc 915e 8b3d d207 1fbd 4225 49bd
00000130: 99f2 273c 9cbe a63b 3301 4e3c e1a8 2d3c
00000140: 49d2 f93d 2e87 dabc 562f cf3d 10a2 c73d
00000150: ef02 11bd 998a 9e3c 483e 903d 948f 48bd
00000160: 6340 593d d02a 523d 984a 7dbd 5015 9f3d
00000170: 3a9c cd3c 0126 3d3d 9cdb 283d 9176 833c
00000180: a148 e83d 9926 b7bd 0d77 343d 33ee 5cbb
00000190: a454 aebb 4610 b73d 9a4a c23d 92ec 0f3d
000001a0: 9886 b3bd 4dec 013e 8c6e 01bd be9d e73d
000001b0: f61d 603c df2b a63d 4e13 2c3e d1f2 8bbc
000001c0: 2e6f e13a 3533 ac3c ebd1 cd3d 33fa be3d
000001d0: 468b 123e 466f 34bd e1e9 fd3d dc30 dd3c
000001e0: 1bcd d53d b870 a93d 7c38 293e a7ff b63d
000001f0: cf4f 5f3c 26a1 8fbd 6794 68bc 1765 ee3b
00000200: 28b1 9ebb 6f5a 943c dea6 0fbc 69db af3d
00000210: d196 a43d 9adb 4c3d be5f 4e3c 0c39 b43d
00000220: 416c 473d dd15 6ebb ef3c 58bd 62eb 6e3c
00000230: 01fd 0fbd e49e b93d 9437 a6bd 5eea eb3d
00000240: 82b9 e83c 98e4 55bd 6fd4 f53d a5fe 41bd
00000250: 9f30 013e 14bc 753d 79c2 883d d6e4 be3c
00000260: 8bc7 edbd 67cc 15bd b537 91bd 93a4 9ebd
00000270: 3f3b 1d3d e3b1 0d3d bf49 2a3d 79a6 213e
00000280: 2b67 b03d 0ce1 4fbd 0d31 863d 9d57 383d
00000290: f678 6dbd 6277 983c 00c3 a23d 1c41 9f3d
000002a0: a000 ca3e b2fb 903d 821b bd3d bce7 ad3d
000002b0: d277 923d d67f 713d 57a2 a63b 3d9b 0cbb
000002c0: 58ec 27bc b654 a43d ab18 5c3d 82be 8dbd
000002d0: 0eae be3d ae4f 163d 3556 013c dee7 36bd
000002e0: 93e6 d8bd 36f8 0a3d 235d c43d ab0d f63d
000002f0: 2a10 19bd 1301 64bc ba26 f0bc c6ab d73d
00000300: 871a 153d 2b6d 8fbd 2c6a 8dbc 885d cfbd
00000310: 0348 95bd 675f 41bd 0afe be3d 9aab 053c

fc2.weight f4 [200, 200]
-0.039414007 0.099922195 -0.002439117 0.09322605 -0.08259526 0.0003090512 0.12413086 -0.015670404
0.005929855 0.13546844 -0.015606897 -0.15710033 -0.013505717 0.03831891 0.0076570213 -0.13010055
-0.047297794 0.02507106 0.010187756 0.025765417 0.049321376 0.21384397 0.30395055 -0.13928616
0.09534578 0.1693606 0.010924099 -0.15661307 0.007319156 0.049214378 -0.12532292 -0.05618586
0.024159946 0.09662644 0.060821265 -0.21365604 0.01792546 0.00541032 0.055919293 0.04155612
-0.04252681 -0.053590357 -0.07498235 0.07424421 -0.04574728 0.026646925 0.06350014 0.25195447
-0.0136971325 0.03523835 -0.017811185 0.11995311 0.06793403 0.066979825 -0.040032808 0.051486444
0.008263085 0.08155656 0.42502737 0.026032731 -0.054672 0.00029569346 -0.1536347 0.06994614
0.08901442 -0.18097901 -0.28514785 -0.012151847 -0.0074963635 0.07951601 -0.08456713 0.024270622
-0.24218205 -0.0069259666 -0.030907668 0.0980731 -0.07803428 -0.26964292 -0.032354686 0.028362306
-0.034983363 0.012117194 -0.11770991 0.0108987 0.03487077 -0.019173514 0.0148477545 -0.04084222
0.059358306 -0.08392335 -0.058796596 -0.009929008 0.08109401 -0.06437977 0.08764636 -0.04021347
-0.10386056 -0.0842793 0.1389044 -0.018707521 0.1945082 0.13813129 -0.17306267 0.027556822
0.1569946 -0.08534761 -0.04757872 0.03811387 -0.021372005 0.042176895 -0.014488072 0.019870482
0.068168685 -0.018048218 0.01566462 0.0029992426 -0.0025508949 0.11941519 -0.1201841 -0.24470106
0.05107417 -0.06660852 0.012887727 0.080391236 0.09944159 0.005011929 -0.115076855 -0.10617216
-0.0614564 -0.01257235 0.054493744 0.14706735 0.0962381 0.03676823 0.010767644 0.11523664
0.018422725 -0.04460507 -0.052232157 -0.040841483 0.066643864 0.11093791 -0.17700484 0.066241495
-0.06809327 0.014743205 -0.16712911 0.03943813 -0.012110783 -0.014423338 0.11062085 0.0128613
-0.08849375 0.080811344 0.03523419 -0.038628392 -0.13076563 -0.2906579 -0.15164745 0.1647233
0.059834935 0.0521552 0.051093787 -0.0014736373 -0.119533546 -0.07879422 -0.022376716 -0.03380666
-0.2010805 -0.097026214 -0.10874891 0.11564137 -0.013588042 0.03173659 0.15712401 -0.26429033
0.055075463 0.011016556 0.038420487 0.10318673 -0.042797707 -0.018535225 -0.04189612 0.0179931
-0.17412652 -0.029993048 -0.082548454 0.022257496 0.13908379 -0.18103062 -0.076577716 0.08707976
0.025985384 -0.1854811 0.039786354 -0.07048967 -0.47331035 0.02455221 0.016534906 0.07107014
-0.051958546 -0.054567613 0.081374824 0.041551195 -0.021509066 -0.049864963 -0.06018756 -0.083595216
0.03556824 -0.10821126 -0.09844385 0.22147466 0.06134648 -0.13539582 0.03279444 0.01545574
-0.03906942 0.021326069 0.033982895 -0.037071887 -0.030096784 -0.012003391 -0.11959384 0.07121402
-0.0643282 -0.14636448 -0.041908994 -0.071577184 -0.02735858 0.029296009 0.15197827 -0.035155464
-0.06808387 0.063789025 -0.07818513 -0.067668736 0.021138074 -0.006862022 -0.15038374 -0.038178235
0.040637195 -0.0650849 0.048813406 0.03926581 -0.024452351 0.08214365 0.042140942 -0.21065019
0.072178595 0.03113509 -0.012718588 -0.17008863 -0.040403444 -0.02814096 -0.05759888 0.01634889
00000000: 9570 21bd 02a4 cc3d 98d9 1fbb 4ded be3d
00000010: b427 a9bd 2608 a239 5238 fe3d 385f 80bc
00000020: 3b4f c23b 3db8 0a3e 12b4 7fbc e9de 20be
00000030: 1547 5dbc 4af4 1c3d c0e7 fa3b 1439 05be
00000040: 55bb 41bd d361 cd3c 8cea 263c ff11 d33c
00000050: 3605 4a3d eaf9 5a3e 689f 9b3e 08a1 0ebe
00000060: a644 c33d dd6c 2d3e fefa 323c 2d5f 20be
00000070: 88d5 ef3b 0495 493d a754 00be 2523 66bd
00000080: 14eb c53c 15e4 c53d b81f 793d a6c8 5abe
00000090: 6ad8 923c 0e49 b13b a10b 653d c036 2a3d
000000a0: 9830 2ebd 9081 5bbd 5990 99bd 590d 983d
000000b0: 8061 3bbd a74a da3c 5d0c 823d 2d00 813e
000000c0: f069 60bc 1756 103d c3e8 91bc faa9 f53d
000000d0: ff20 8b3d b82c 893d 71f9 23bd 73e3 523d
000000e0: e461 073c 2007 a73d 309d d93e 9842 d53c
000000f0: bfef 5fbd 4e07 9b39 6a52 1dbe ec3f 8f3d
00000100: 314d b63d 9052 39be e6fe 91be 8a18 47bc
00000110: 0ea4 f5bb 4ad9 a23d 8831 adbd 2fd3 c63c
00000120: 92fe 77be 38f3 e2bb 1432 fdbc 8dda c83d
00000130: 70d0 9fbd a30e 8abe 5986 04bd 1158 e83c
00000140: b74a 0fbd 3287 463c e511 f1bd 7690 323c
00000150: a7d4 0e3d c611 9dbc ff43 733c 2c4a 27bd
00000160: b221 733d 01e0 abbd b3d4 70bd 47ad 22bc
00000170: 9e14 a63d 8ad9 83bd ef7f b33d e1b6 24bd
00000180: d8b4 d4bd a09a acbd f43c 0e3e 8440 99bc
00000190: 282d 473e 4a72 0d3e 5737 31be d8be e13c
000001a0: 31c3 203e baca aebd e7e1 42bd 4a1d 1c3d
000001b0: 5814 afbc aec1 2c3d 615f 6dbc 6cc7 a23c
000001c0: 069c 8b3d dbd9 93bc 1753 803c f18e 443b
000001d0: ea2c 27bb f38f f43d 1523 f6bd ea92 7abe
000001e0: 2633 513d 0c6a 88bd 0b27 533c 29a4 a43d
000001f0: 08a8 cb3d 1c3b a43b 6aad ebbd ca70 d9bd
00000200: b5b9 7bbd 42fc 4dbc d534 5f3d d398 163e
00000210: 7b18 c53d 499a 163d c66a 303c 3001 ec3d
00000220: 41eb 963c ceb3 36bd 63f1 55bd 6649 27bd
00000230: 947c 883d 6a33 e33d c240 35be 9fa9 873d
00000240: 7c74 8bbd 7c8d 713c e523 2bbe e089 213d
00000250: 4e6c 46bc dd4f 6cbc 2f8d e23d 34b8 523c
00000260: 363c b5bd 6b80 a53d ba51 103d ce38 1ebd
00000270: 6de7 05be 1dd1 94be 7849 1bbe 3aad 283e
00000280: 7a15 753d b1a0 553d b847 513d 1027 c1ba
00000290: 01ce f4bd dd5e a1bd 604f b7bc da78 0abd
000002a0: 0ce8 4dbe aeb5 c6bd c0b7 debd 62d5 ec3d
000002b0: 61a0 5ebc 3afe 013d 1ee5 203e 1051 87be
000002c0: cf96 613d c97e 343c cd5e 1d3d 9053 d33d
000002d0: a64c 2fbd 2fd7 97bc 449b 2bbd 4466 933c
000002e0: 394e 32be fbb3 f5bc 2a0f a9bd 5a55 b63c
000002f0: fb6b 0e3e 1760 39be c7d4 9cbd e056 b23d
00000300: 4ddf d43c c2ee 3dbe 04f7 223d e35c 90bd
00000310: bc55 f2be b721 c93c 3674 873c 398d 913d
00000320: 7cd2 54bd 4a82 5fbd d8a7 a63d 9631 2a3d
00000330: c833 b0bc 343f 4cbd 3b87 76bd f833 abbd
00000340: 01b0 113d dd9d ddbd ee9c c9bd 41ca 623e
00000350: 7246 7b3d 34a5 0abe 7653 063d 123a 7d3c
00000360: 4207 20bd 02b4 ae3c a631 0b3d b1d8 17bd
00000370: 888d f6bc dfa9 44bc 9ded f4bd a8d8 913d
00000380: 81be 83bd 92e0 15be c4a8 2bbd 0f97 92bd
00000390: 1a1f e0bc 2ffe ef3c 31a0 1b3e 2dff 0fbd
000003a0: 8e6f 8bbd d2a3 823d 871f a0bd e895 8abd
000003b0: c129 ad3c d0da e0bb 32fe 19be c860 1cbd
000003c0: 3073 263d 3b4b 85bd 91f0 473d 30d5 203d
000003d0: 4c50 c8bc ee3a a83d fb9b 2c3d afb4 57be
000003e0: 5fd2 933d 040f ff3c a061 50bc b72b 2ebe
000003f0: 157e 25bd df87 e6bc ceec 6bbd 1bee 853c

fc2.bias f4 [200]
0.073250435 -0.038357522 -0.0070995647 0.09926241 0.07329482 -0.027604192 0.07033763 0.08925659
0.031914067 -0.067489736 -0.020992238 0.016259933 0.038529836 -0.0046746577 0.057600223 0.07838237
-0.052729145 -0.06999033 -0.06214569 -0.05169218 -0.004277852 0.06415823 0.051404808 0.090805165
0.036298934 0.07708214 0.00078798225 0.06434991 0.056651816 0.06335832 0.043092955 -0.013991423
-0.008084546 -0.028600708 -0.00847667 0.06977918 -0.047468215 -0.030766388 -0.012508442 -0.026158247
-0.013865166 0.0028501237 -0.021050092 0.008643576 0.026715053 -0.014678193 0.06896066 0.040288355
-0.034039065 -0.024598897 -0.0028081595 0.077508196 -0.02527195 0.07106616 0.049970675 -0.0020213274
0.08042257 0.07004001 -0.025363432 0.13642678 0.062867306 0.0029983574 0.028027533 -0.022422
0.0009296577 0.09048774 0.022412937 0.06726699 -0.03868663 -0.06117423 0.01865371 0.05592525
-0.032701846 0.03556412 0.034345116 -0.020189026 0.054897763 0.090662904 0.04562433 -0.044823114
0.00947751 -0.0095892 -0.0014659488 -0.060325462 0.042746708 -0.027767131 0.10196379 0.031634416
0.06637811 0.051793434 -0.05946068 0.032469533 0.044027813 -0.0045335763 0.047081117 -0.05905749
-0.087505534 0.023756405 -0.04535627 0.061662044 -0.017634325 -0.026370125 0.013449917 -0.03684254
0.03289335 -0.048858777 0.061072506 0.047377434 0.029805178 0.054738276 -0.00096713164 -0.042547498
0.030902762 0.029029278 0.06230099 0.021743044 0.014861708 -0.03187028 -0.058752064 -0.011288706
-0.062089916 -0.010720604 -0.0038019356 0.09810209 -0.01241226 0.038884964 0.004577119 0.022960728
0.042412568 -0.020201754 0.0016800981 -0.0016791461 -0.06947735 0.03838815 0.0052211042 0.056716707
-0.023375204 -0.030594321 -0.030354023 -0.028876014 0.0010665252 0.089732416 0.009077628 -0.0105308825
0.07288571 -0.061241865 0.035390634 -0.0039977063 -0.039041586 0.032689337 0.05485012 0.08395228
0.046858657 0.07151592 0.033275273 -0.026586011 0.08410415 0.07143407 -0.007167142 -0.029034473
0.08819054 -0.01790909 -0.05367151 0.0807916 0.08334843 0.04455477 -0.060115773 0.011637851
-0.02518656 -0.056765806 0.069964424 0.10480169 -0.02098766 -0.014649301 0.061294947 0.05147736
-0.05547699 -0.04562353 -0.009362026 0.008889814 0.060595885 -0.029004144 0.07670497 -0.034170184
-0.039198935 0.08993214 0.0727718 0.008037667 -0.061663195 0.030678937 0.08220348 0.07781677
-0.03498996 0.0008318627 0.038957037 0.028433885 0.015575342 -0.047490228 1.561793e-05 0.04590223
00000000: 5304 963d c71c 1dbd 77a3 e8bb 174a cb3d
00000010: 981b 963d 3022 e2bc 2d0d 903d 29cc b63d
00000020: 53b8 023d 0f38 8abd eaf7 abbc 8d33 853c
00000030: 76d1 1d3d df2d 99bb 36ee 6b3d f086 a03d
00000040: 84fa 57bd 1757 8fbd 7b8c 7ebd 2ebb 53bd
00000050: 392d 8cbb 6465 833d d98d 523d 0ff8 b93d
00000060: 31ae 143d 3edd 9d3d 9890 4e3a e3c9 833d
00000070: bc0b 683d 02c2 813d 3d82 303d 483c 65bc
00000080: 0b75 04bc 084c eabc bbe1 0abc 63e8 8e3d
00000090: 086e 42bd cb09 fcbc 35f0 4cbc d249 d6bc
000000a0: b92a 63bc 24c9 3a3b 3e71 acbc c99d 0d3c
000000b0: 87d9 da3c ce7c 70bc 3f3b 8d3d 6705 253d
000000c0: 8c6c 0bbd a083 c9bc 1909 38bb 9ebc 9e3d
000000d0: 1f07 cfbc 238b 913d 0dae 4c3d 3f78 04bb
000000e0: 97b4 a43d 2371 8f3d f9c6 cfbc 76b3 0b3e
000000f0: 93c0 803d 1780 443b ff99 e53c 58ae b7bc
00000100: 46b4 733a a351 b93d 569b b73c 47c3 893d
00000110: df75 1ebd d491 7abd aacf 983c e011 653d
00000120: 5ff2 05bd afab 113d 77ad 0c3d 7563 a5bc
00000130: 7adc 603d 79ad b93d 94e0 3a3d 7198 37bd
00000140: 8f47 1b3c 051c 1dbc 1425 c0ba d517 77bd
00000150: 2c17 2f3d e577 e3bc 64d2 d03d 1793 013d
00000160: 3ff1 873d 5a25 543d 0b8d 73bd c6fe 043d
00000170: 8256 343d 658e 94bb 21d8 403d 44e6 71bd
00000180: 1a36 b3bd cb9c c23c 7fc7 39bd 5791 7c3d
00000190: dc75 90bc 2906 d8bc 0a5d 5c3c 34e8 16bd
000001a0: 2dbb 063d 2420 48bd 2a27 7a3d d70e 423d
000001b0: fd29 f43c 3e35 603d 1b87 7dba 4946 2ebd
000001c0: ca27 fd3c cfce ed3c 532f 7f3d 781e b23c
000001d0: 857e 733c 698a 02bd 01a6 70bd 44f4 38bc
000001e0: ff51 7ebd 79a5 2fbc e529 79bb c0e9 c83d
000001f0: cb5c 4bbc d745 1f3d a8fb 953b 2318 bc3c
00000200: cdb8 2d3d 267e a5bc bd36 dc3a cb16 dcba
00000210: 244a 8ebd e53c 1d3d cc15 ab3b c74f 683d
00000220: 5b7d bfbc f1a0 fabc 00a9 f8bc 648d ecbc
00000230: a6ca 8b3a a1c5 b73d 55ba 143c b989 2cbc
00000240: 1a45 953d c0d8 7abd c5f5 103d 31ff 82bb
00000250: 12ea 1fbd 41e5 053d 85aa 603d 2cef ab3d
00000260: ddee 3f3d f076 923d a74b 083d e8ca d9bc
00000270: cc3e ac3d 074c 923d 58da eabb b4d9 edbc
00000280: 3e9d b43d 15b6 92bc a8d6 5bbd 1176 a53d
00000290: 95b2 aa3d 107f 363d f53b 76bd afac 3e3c
000002a0: 0b54 cebc 4383 68bd 8249 8f3d 45a2 d63d
000002b0: 50ee abbc 9f03 70bc 6910 7b3d edd9 523d
000002c0: d73b 63bd bddf 3abd 2f63 19bc 95a6 113c
000002d0: 6433 783d 199a edbc 7f17 9d3d 09f6 0bbd
000002e0: 108f 20bd 582e b83d 6209 953d 6bb0 033c
000002f0: 8c92 7cbd 6552 fb3c 4c5a a83d 665e 9f3d
00000300: a251 0fbd 5c11 5a3a 6a91 1f3d 2eee e83c
00000310: b82f 7f3c 1d85 42bd 4003 8337 fa03 3c3d

fc_sentiment.weight f4 [5, 200]
0.20311444 0.07714092 -0.124166876 0.07083498 -0.07897407 0.2972594 -0.25553247 -0.04829427
0.11493459 -0.056669876 -0.14279398 0.025854293 -0.07468078 0.22316968 -0.20816891 0.35603726
0.18267524 -0.11991054 -0.03766665 -0.28166175 -0.18731067 -0.02099804 0.4719698 -1.4375004
-0.055526365 -0.00377359 0.12782376 -1.5871185 0.11635449 -0.12967098 0.026815448 -0.2255331
-0.14578642 0.019685458 -0.33193806 0.011630287 -0.005390786 0.051989052 0.30565295 -0.07783744
-0.062453326 -0.05826893 -0.032411654 0.023168778 0.0036601329 -0.0275964 0.037989113 0.27515185
-0.012717342 0.04288802 0.24611025 -0.34613302 -0.59100085 0.11620314 -0.2560437 0.20190501
-0.35299772 0.19579446 0.15400842 -0.044315293 0.2061756 -0.2377683 -0.072716005 0.042823795
-0.23390846 -0.09834223 0.05326496 -0.059923954 -0.05509083 0.095254645 -0.3212073 0.14830895
-0.23282741 0.16763842 -0.101145945 -0.28322428 -0.2999194 0.27235618 0.22879596 -0.098660775
0.051769175 0.1852983 1.250907 -0.4676446 0.115315296 0.08712006 0.091372766 0.06763489
-0.36365417 -0.21786849 0.1099682 -0.3534269 0.082854524 -0.076966316 -0.18460748 -0.11239173
-0.38180903 0.014837328 0.27956223 0.1757234 -0.02089042 -0.044727318 0.22003049 -0.054747548
-0.19166529 0.22943583 -0.34363112 0.069763735 0.09775717 -0.113287024 0.010499488 -0.010871352
0.68850845 -0.08037268 0.05547117 -0.018097706 0.08663789 -0.18924153 -0.028158605 -0.008933227
-0.0024630874 -0.36052 0.18389724 -0.521697 -0.08353203 0.11426818 0.14923383 0.07397323
0.03177341 0.047978085 0.01439477 0.022493804 0.34968022 -0.20318793 0.11949479 0.14087394
0.0570079 0.12808104 0.049553383 0.0035195888 -0.0067029977 0.07173679 0.10631291 -0.564853
0.0110550355 -0.017572908 0.15228525 0.42780995 0.059193615 -0.01930536 -0.02658651 0.052438356
-0.013397559 0.010907045 -0.06409331 -0.44638267 -0.020705808 -0.7859456 -0.19647783 -0.083449505
-0.2248351 0.04225046 -0.08540471 0.13826624 0.005838037 -0.11295897 0.33600983 -0.119146794
-0.07026344 0.08858964 0.03136749 -0.007950691 -0.40153968 0.156642 0.18231982 0.10464952
0.08119039 0.08057683 -1.3002633 0.058077328 -0.3331037 -0.10880806 -0.21620987 0.10811542
0.06769208 0.32204118 -0.3252056 -0.021321733 0.14274588 -0.16103289 0.034316167 -0.0758688
0.10866773 0.12565257 -0.14844528 0.1802537 -0.6029322 0.1193065 -0.10875359 0.0522967
0.087283 0.04893312 0.06338729 -0.19283491 0.08586418 -0.15979443 0.21407925 -0.17140584
0.06383275 0.026037456 0.11950579 0.0079414155 0.024952658 -0.065045446 0.06692592 -0.23217101
-0.20885478 -0.16055283 -0.051166132 0.05267627 0.22220618 0.03771346 -0.006999871 0.24280667
-0.039725248 0.065865725 0.044805657 -1.9391607 -0.18078735 -0.18594398 0.046584476 0.06671102
0.06296285 -0.12489617 -0.07984094 0.09317474 0.07108641 -0.02063356 -0.07491306 -0.026287572
-0.14789058 0.05519497 -0.13001548 -0.036392916 -0.11723875 -0.018642098 -0.13286643 0.15042835
-0.011787676 0.010968032 0.033134475 0.2786201 -0.1750571 -0.054535978 -0.013247544 0.11371347
00000000: 3bfd 4f3e 0ffc 9d3d 344b febd ee11 913d
00000010: 28bd a1bd 6232 983e 27d5 82be 36d0 45bd
00000020: d462 eb3d ac1e 68bd 9638 12be 62cc d33c
00000030: 3df2 98bd 9886 643e 3b2a 55be 844a b63e
00000040: 380f 3b3e a893 f5bd 5848 1abd f835 90be
00000050: 5ece 3fbe 1504 acbc 07a6 f13e 0300 b8bf
00000060: 9d6f 63bd 564e 77bb 3be4 023e b326 cbbf
00000070: 434b ee3d 78c8 04be 12ac db3c 26f2 66be
00000080: 0949 15be 6643 a13c c9f3 a9be f68c 3e3c
00000090: 31a5 b0bb 79f2 543d 8b7e 9c3e 3c69 9fbd
000000a0: 0fcf 7fbd 67ab 6ebd 15c2 04bd 73cc bd3c
000000b0: d7de 6f3b d811 e2bc 799a 1b3d b4e0 8c3e
000000c0: 665c 50bc 59ab 2f3d 5304 7c3e 5938 b1be
000000d0: d54b 17bf e9fb ed3d 2918 83be 30c0 4e3e
000000e0: 1ebc b4be 587e 483e 62b4 1d3e f483 35bd
000000f0: b21f 533e 8979 73be 21ec 94bd 0168 2f3d
00000100: b385 6fbe a767 c9bd 5c2c 5a3d d272 75bd
00000110: eca6 61bd de14 c33d 4975 a4be 4dde 173e
00000120: 4f6a 6ebe 68a9 2b3e 9b25 cfbd c602 91be
00000130: 098f 99be 4572 8b3e 7d49 6a3e a90e cabd
00000140: ea0b 543d d6be 3d3e b81d a03f 1d6f efbe
00000150: 6d2a ec3d 016c b23d a521 bb3d 2984 8a3d
00000160: e130 babe eb18 5fbe 0237 e13d 5ff4 b4be
00000170: a2af a93d 84a0 9dbd be09 3dbe a32d e6bd
00000180: 797c c3be 4418 733c c822 8f3e d6f0 333e
00000190: 6322 abbc fe33 37bd ac4f 613e f73e 60bd
000001a0: e843 44be 3af1 6a3e 6bf0 afbe 4ae0 8e3d
000001b0: e934 c83d 0703 e8bd 0b06 2c3c c11d 32bc
000001c0: 1742 303f 6f9a a4bd bd35 633d a441 94bc
000001d0: 356f b13d 88c8 41be e0ac e6bc ab5c 12bc
000001e0: c06b 21bb 1496 b8be 8f4f 3c3e ef8d 05bf
000001f0: d712 abbd 7005 ea3d c1d0 183e 477f 973d
00000200: d624 023d ab84 443d 0bd8 6b3c ed44 b83c
00000210: 4909 b33e 7f10 50be afb9 f43d 4241 103e
00000220: 1e81 693d ad27 033e 7df8 4a3d e7a8 663b
00000230: d2a4 dbbb bdea 923d 95ba d93d 359a 10bf
00000240: 2e20 353c 0ff5 8fbc aaf0 1b3e e809 db3e
00000250: 0175 723d 4626 9ebc f4cb d9bc 9ac9 563d
00000260: 6f81 5bbc 76b3 323c 5a43 83bd 458c e4be
00000270: 3a9f a9bc bb33 49bf 7c31 49be 93e7 aabd
00000280: 2c3b 66be d10e 2d3d aae8 aebd aa95 0d3e
00000290: 014d bf3b 0857 e7bd 7b09 ac3e 3c03 f4bd
000002a0: 47e6 8fbd 7c6e b53d 327b 003d 9d43 02bc
000002b0: 9c96 cdbe c366 203e 0cb2 3a3e 7d52 d63d
000002c0: 2647 a63d 7705 a53d 076f a6bf 7ee2 6d3d
000002d0: 918c aabe c3d6 debd 1f66 5dbe 9e6b dd3d
000002e0: 25a2 8a3d 95e2 a43e 5981 a6be eaaa aebc
000002f0: fa2b 123e cee5 24be 1c8f 0c3d 1a61 9bbd
00000300: 308d de3d 11ab 003e 0a02 18be 6d94 383e
00000310: c459 1abf f756 f43d 34ba debd 1135 563d
00000320: 6ec1 b23d 186e 483d 32d1 813d 8476 45be
00000330: 8fd9 af3d 27a1 23be 9737 5b3e 0385 2fbe
00000340: bfba 823d 814c d53c 74bf f43d b61c 023c
00000350: 8469 cc3c 8c36 85bd 7510 893d 3dbe 6dbe
00000360: 07de 55be f667 24be 9493 51bd 13c3 573d
00000370: 048a 633e 6e79 1a3d 2d5f e5bb 50a2 783e
00000380: f1b6 22bd 9ce4 863d 2386 373d 6b36 f8bf
00000390: 5220 39be 1968 3ebe 5dcf 3e3d ca9f 883d
000003a0: abf2 803d 90c9 ffbd a683 a3bd 66d2 be3d
000003b0: c095 913d b607 a9bc 056c 99bd 0959 d7bc
000003c0: a170 17be 1f14 623d c722 05be bd10 15bd
000003d0: df1a f0bd 50b7 98bc 230e 08be e409 1a3e
000003e0: 1921 41bc 43b3 333c 04b8 073d 4ba7 8e3e
000003f0: 2b42 33be 1e61 5fbd 3a0c 59bc 9ce2 e83d

fc_sentiment.bias f4 [5]
0.061194558 -0.017321741 -0.031088045 0.044969827 -0.048223384
00000000: 25a7 7a3d 53e6 8dbc 5bac febc 4832 383d
00000010: e285 45bd

fc_topic.weight f4 [5, 200]
-0.2198848 0.10568991 0.045189675 0.05417172 0.06254704 0.08946579 0.056971665 -0.088382475
0.18367751 -0.063111655 0.04681216 0.1557078 0.056887563 -0.016993841 0.13729414 0.14454496
0.12777896 -0.31192192 0.027635047 0.13800098 0.06703757 0.067398 -0.11501549 0.46485373
0.062061958 -0.048695352 0.023889016 0.1732096 0.2252949 0.13506661 -0.05310836 0.13652118
0.03618146 0.13964126 0.08201688 0.06176841 -0.039073355 -0.09331261 -0.3522477 -0.010814556
-0.26677576 -0.13400078 0.16943847 -0.024483176 0.13058434 -0.061837673 -0.052686326 0.028637452
-0.047766734 0.003076374 -0.2602694 0.012995444 -0.28476194 0.100610256 0.2510918 -0.101026855
-0.085660346 0.12379473 0.06849633 0.20659477 -0.0040231 0.18476796 -0.025409795 -0.17078535
-0.116558865 -0.014138085 -0.033587795 0.08500265 0.028592067 0.04637816 0.33092666 0.050729983
0.025085764 0.1977116 0.11364064 0.019584594 -0.14892301 0.05020893 0.17113188 -0.020060223
0.101090506 -0.16186517 0.24042775 0.015728751 -0.17927268 0.03384503 0.25125024 0.17365961
-0.050988667 0.03184276 -0.15627049 0.21247408 0.2705245 0.057727262 0.18240128 0.15190211
-0.21532594 -0.0937804 -0.041119695 -0.2083722 0.38223132 0.16534288 -0.12836424 0.17250022
0.14721398 -0.15443875 0.013224108 0.12400727 0.06393203 -0.12603436 0.072744094 0.07008007
-0.8440872 0.038911115 0.06521625 -0.18790784 -0.09083698 0.116557986 -0.021741351 -0.011709969
0.14807719 -0.21152695 -0.07467225 0.8898365 -0.07984552 -0.3125087 0.027901188 -0.0057291286
0.13950835 -0.053854894 -0.023740144 0.03520778 -0.118295275 -0.07423166 0.120060585 0.1284343
0.04630968 -0.09385601 0.0055190134 -0.028015641 -0.024639323 0.053611252 0.10875459 -0.21511176
-0.010251878 0.032091 -0.022310894 0.28873524 -0.043860152 0.22834249 -0.1067547 -0.08620469
-0.042072512 -0.078060456 0.050568417 -0.09157525 -0.18961602 -0.03013885 -0.010410641 0.10891478
0.014188435 -0.018917961 -0.20393737 -0.10730803 0.076001324 0.08050483 -0.021161048 0.085040584
-0.014265197 0.21183576 0.05268678 0.13512896 0.19844301 0.03874901 -0.29867417 0.15900797
-0.02751695 0.067181766 -0.4164458 0.046599917 0.08449238 0.13772082 -0.2476648 -0.12610719
0.13963744 -0.53023046 0.0026437277 0.10793144 -0.17585167 0.23827168 0.28834322 0.055651367
-0.0265757 -0.070106804 0.011859377 -0.10006179 -0.6464841 -0.38371995 0.11272341 0.08341468
0.14082566 -0.16530427 0.07734387 0.17774093 -0.16950858 -0.4222428 -0.33006814 -0.26058587
0.035243805 0.02636117 0.13707256 -0.35005444 0.18718755 -0.14746083 -0.25664756 -0.19950153
-0.34691834 0.12619169 0.0011091431 -0.22414356 0.10494759 -0.15687218 -0.39271328 0.13671082
-0.302966 0.15693277 -0.15301138 -1.4583747 -0.7048793 -0.08710908 0.010182907 -0.15912104
-0.5447314 0.1629542 -0.16606726 -0.08464967 0.06303932 -0.58574754 0.38107046 0.07643646
-0.044396672 -0.12840995 -0.0055645704 0.04396678 -0.67480105 -0.05543511 -0.39298177 0.10851764
-0.06944869 0.0046771946 0.38747522 -0.071163476 0.22731648 0.07026808 0.032905087 -0.08223503
00000000: 7b29 61be f473 d83d cf18 393d 2ae3 5d3d
00000010: aa18 803d d739 b73d 1f5b 693d df01 b5bd
00000020: f515 3c3e af40 81bd 1cbe 3f3d de71 1f3e
00000030: ef02 693d ab36 8bbc d696 0c3e 9803 143e
00000040: 7dd8 023e 3bb4 9fbe e562 e23c 2150 0d3e
00000050: fe4a 893d f607 8a3d 3e8d ebbd 4f01 ee3e
00000060: ae34 7e3d c774 47bd e6b2 c33c db5d 313e
00000070: b5b3 663e e74e 0a3e 2788 59bd 35cc 0b3e
00000080: 0333 143d 1efe 0e3e 77f8 a73d df00 7d3d
00000090: 620b 20bd af1a bfbd cf59 b4be 892f 31bc
000000a0: d596 88be 8037 09be 4781 2d3e f190 c8bc
000000b0: e7b7 053e 8049 7dbd 9ecd 57bd 1799 ea3c
000000c0: 0da7 43bd fe9c 493b 0842 85be d8ea 543c
000000d0: 51cc 91be c00c ce3d 1b8f 803e 2be7 cebd
000000e0: b16e afbd 1788 fd3d ce47 8c3d 948d 533e
000000f0: 35d4 83bb d033 3d3e 3428 d0bc 5be2 2ebe
00000100: 6ab6 eebd 6da3 67bc 5b93 09bd df15 ae3d
00000110: e939 ea3c 07f7 3d3d 386f a93e 3eca 4f3d
00000120: a980 cd3c e974 4a3e 6dbc e83d df6f a03c
00000130: 467f 18be e1a7 4d3d 323d 2f3e 5655 a4bc
00000140: 8a08 cf3d fcbf 25be b132 763e 95d9 803c
00000150: 4293 37be 16a1 0a3d dfa3 803e d3d3 313e
00000160: 7ed9 50bd 8e6d 023d 5f05 20be ce92 593e
00000170: 3082 8a3e 6c73 6c3d 67c7 3a3e 3a8c 1b3e
00000180: 677e 5cbe f00f c0bd 206d 28bd 865f 55be
00000190: d3b3 c33e a54f 293e ea71 03be e6a3 303e
000001a0: 43bf 163e 3125 1ebe eea9 583c 86f7 fd3d
000001b0: ccee 823d 270f 01be dbfa 943d 2486 8f3d
000001c0: 1916 58bf 4361 1f3d 1990 853d ea6a 40be
000001d0: bd08 babd f4b5 ee3d eb1a b2bc 2bdb 3fbc
000001e0: 8ca1 173e 859a 58be c4ed 98bd 53cc 633f
000001f0: 0c86 a3bd 2401 a0be 0891 e43c 6abb bbbb
00000200: 47db 0e3e f396 5cbd b17a c2bc 0836 103d
00000210: cb44 f2bd c506 98bd 53e2 f53d 4884 033e
00000220: 38af 3d3d 9437 c0bd d7d8 b43b 0f81 e5bc
00000230: 68d8 c9bc 7997 5b3d baba de3d 4246 5cbe
00000240: 7ef7 27bc da71 033d 56c5 b6bc 1bd5 933e
00000250: b4a6 33bd 9dd2 693e 35a2 dabd 168c b0bd
00000260: 3a54 2cbd 29de 9fbd d420 4f3d ce8b bbbd
00000270: b42a 42be c0e5 f6bc 6591 2abc b60e df3d
00000280: 9c76 683c d7f9 9abc f5d4 50be 50c4 dbbd
00000290: 95a6 9b3d b7df a43d ef59 adbc c229 ae3d
000002a0: 93b8 69bc 79eb 583e 18ce 573d 3f5f 0a3e
000002b0: a534 4b3e 48b7 1e3d d2eb 98be fcd2 223e
000002c0: 3a6b e1bc 9896 893d 6238 d5be 8edf 3e3d
000002d0: 570a ad3d b006 0d3e d79b 7dbe 3e22 01be
000002e0: 1efd 0e3e 2fbd 07bf 6442 2d3b 290b dd3d
000002f0: 7612 34be 7efd 733e b9a1 933e b0f2 633d
00000300: 48b5 d9bc 2894 8fbd d54d 423c 32ed ccbd
00000310: fb7f 25bf f176 c4be 88db e63d 51d5 aa3d
00000320: 9a34 103e 8645 29be 7766 9e3d b801 363e
00000330: a893 2dbe 3530 d8be b1fe a8be 836b 85be
00000340: cf5b 103d 61f3 d73c c05c 0c3e 563a b3be
00000350: 18ae 3f3e f9ff 16be 4f67 83be 214a 4cbe
00000360: 489f b1be 6538 013e ab60 913a e485 65be
00000370: c3ee d63d 1aa3 20be b711 c9be ecfd 0b3e
00000380: 5c1e 9bbe fcb2 203e 04af 1cbe 06ac babf
00000390: f872 34bf 3f66 b2bd 35d6 263c a0f0 22be
000003a0: 8473 0bbf 77dd 263e 890d 2abe ce5c adbd
000003b0: c21a 813d 8df3 15bf ab1b c33e b88a 9c3d
000003c0: 49d9 35bd e67d 03be 0057 b6bb 8316 343d
000003d0: c3bf 2cbf ed0f 63bd e834 c9be 7f3e de3d
000003e0: 1d3b 8ebd 2743 993b 2763 c63e 28be 91bd
000003f0: a7c5 683e b6e8 8f3d 7cc7 063d d76a a8bd

fc_topic.bias f4 [5]
0.013146784 0.031000888 0.006796548 -0.06656111 -0.05493261
00000000: 9c65 573c 93f5 fd3c 94b5 de3b 3151 88bd
00000010: 0401 61bd
